MQL5/Experts/article_12373/Python/model.eurusd.H1.120.onnx (onnx, 905628 bytes, 9 tensors)

sequential/dense/MatMul/ReadVariableOp:0 f4 [100, 1]
0.15311405 0.14786851 0.16635172 0.118064836 -0.110950835 -0.12867516 -0.1554864 0.14220257
0.18540746 -0.14528492 -0.14002629 -0.14941481 -0.13038987 -0.13149847 -0.16283876 -0.18590592
0.17317724 -0.14288577 0.195353 -0.15347269 -0.1289977 0.16857184 -0.1513206 -0.15086126
-0.115311004 0.15195318 -0.1509089 -0.13878585 0.15739171 0.123937026 -0.07705327 -0.1140726
-0.18068857 -0.16341604 -0.114120826 0.06992669 0.12397281 -0.13357796 -0.15595123 -0.110069826
0.1952119 0.16738147 -0.14824727 -0.14481662 -0.1551914 -0.10933985 -0.13227859 -0.16053323
-0.15373233 0.15461844 0.12093374 -0.15841842 -0.13939938 0.105494976 0.13496432 -0.106702074
-0.16624296 0.12934671 0.17248277 0.13849205 0.15745796 0.17129397 0.17338398 -0.12605321
0.14302343 0.13811168 0.13533154 0.13547674 0.14363536 0.14274317 -0.12071693 0.14944178
0.14302291 0.16170293 -0.17270319 0.1191289 -0.15850139 0.13605925 0.06980179 -0.13650545
0.13121265 -0.119131446 -0.13858947 0.14964423 0.16392495 0.17352876 0.16998078 -0.14080401
-0.15100954 -0.15481855 -0.1353388 0.12159799 -0.13337396 -0.12833016 0.16441283 0.13724409
-0.14454934 -0.1337658 0.110922545 0.12402413
00000000: eec9 1c3e d86a 173e 1b58 2a3e facb f13d
00000010: 313a e3bd 6cc3 03be d437 1fbe 8d9d 113e
00000020: 74db 3d3e 92c5 14be 0d63 0fbe 3200 19be
00000030: ec84 05be 89a7 06be 34bf 26be 1f5e 3ebe
00000040: 6055 313e a650 12be 9e0a 483e f227 1dbe
00000050: f917 04be 199e 2c3e caf3 1abe 607b 1abe
00000060: 2d28 ecbd 9d99 1b3e dd87 1abe e11d 0ebe
00000070: 4b2b 213e b2d2 fd3d 1bce 9dbd e59e e9bd
00000080: 6d06 39be 8956 27be 2eb8 e9bd b935 8f3d
00000090: 75e5 fd3d a9c8 08be aeb1 1fbe 4a6c e1bd
000000a0: a1e5 473e 0c66 2b3e 22ce 17be cf4a 14be
000000b0: 7fea 1ebe 92ed dfbd 0a74 07be d362 24be
000000c0: 026c 1dbe 4c54 1e3e 1cac f73d 7038 22be
000000d0: b6be 0ebe c00d d83d 1634 0a3e 9e86 dabd
000000e0: 983b 2abe 7773 043e 539f 303e dcd0 0d3e
000000f0: a93c 213e b067 2f3e 928b 313e 1814 01be
00000100: bc74 123e 266d 0d3e 5a94 0a3e 6aba 0a3e
00000110: 2615 133e 442b 123e 703a f7bd 4407 193e
00000120: 9974 123e 7495 253e 1bd9 30be daf9 f33d
00000130: 304e 22be 1e53 0b3e 3ef4 8e3d 16c8 0bbe
00000140: 9c5c 063e 30fb f3bd 66ea 0dbe 563c 193e
00000150: f1db 273e 86b1 313e 710f 2e3e ed2e 10be
00000160: 3fa2 1abe c188 1ebe 4196 0abe 5e08 f93d
00000170: 2f93 08be fb68 03be d65b 283e b789 0c3e
00000180: be04 14be e7f9 08be 5c2b e33d 5d00 fe3d

sequential/conv1d/Conv1D/ExpandDims_1:0 f4 [256, 1, 1, 2]
0.08300016 0.079796635 0.020487115 -0.13941781 -0.05036968 0.108692944 0.061578535 0.08803489
0.0097752875 0.06755898 -0.06752918 -0.0174229 0.06965109 0.10420375 -0.09304707 -0.23975724
-0.086734004 -0.0018353015 0.049485534 0.110349864 0.08693806 0.05572317 -0.05660713 -0.05281245
-0.011638515 -0.045465223 0.06642566 0.12541457 0.06928839 0.051301394 -0.26389903 -0.18195176
0.15188912 -0.13209605 0.018862706 0.07034426 -0.027734544 0.028164485 0.09466495 -0.01640731
0.092260696 -0.049243182 -0.022031391 -0.10128113 -0.036649927 -0.15985173 -0.017244695 0.10750264
-0.02087069 0.062037677 -0.0012150928 -0.015947483 0.05926498 0.10920208 -0.015239266 0.016977644
0.16339886 -0.18815072 -0.08464663 -0.0062388554 -0.039065532 -0.06848356 0.09748342 -0.0018900374
0.026601307 0.11192737 0.034497194 0.08201373 -0.03388361 -0.08718178 0.16904412 -0.21236208
-0.029294334 -0.03847892 0.08367632 0.08158266 -0.10346856 -0.0958486 0.08189538 -0.077480964
-0.07113304 0.022496693 0.026441064 -0.10840485 -0.005626552 -0.02242288 0.061283343 0.10651436
0.06723952 0.076705694 -0.10773477 0.025781197 -0.08447662 -0.24075356 -0.1014835 -0.042587318
0.19929439 -0.25000265 0.13604368 0.0028454848 0.13114904 -0.17597626 -0.07905471 0.0039054938
-0.046593767 -0.026544653 -0.04573254 -0.07267151 -0.1264165 -0.018333852 -0.015947934 0.005145492
-0.05625889 -0.008732662 -0.06275882 -0.0799932 -0.091721 0.09038799 0.0848599 0.0739495
0.17146654 -0.20860563 0.09991328 -0.09987816 -0.07569048 -0.09349051 -0.121019974 -0.00756733
0.14595063 -0.12904175 0.10429344 -0.09308328 0.044257343 0.06454107 0.07932362 0.110949926
-0.02713985 -0.07800474 -0.0388135 -0.0824313 0.15284121 -0.19967976 -0.04528398 -0.057995196
-0.030145139 -0.007065594 0.14195187 -0.18598033 0.11416786 -0.038268905 0.0755373 0.11817147
0.037073378 0.12888728 -0.028043307 -0.08111976 0.17681366 -0.21407853 0.14807603 -0.010059033
-0.091039054 -0.02352319 -0.14516161 0.013005745 -0.05500766 -0.003929198 0.06681541 0.022477988
-0.07929966 -0.08887584 0.079728335 0.05178306 0.02185325 0.045786653 -0.030835256 -0.033237338
0.059733506 0.0936947 -0.02903117 0.10043052 0.034415334 0.042267334 -0.093910776 0.023370681
-0.06275273 0.07173089 0.14737158 -0.018144222 0.119660184 -0.08249331 -0.052284077 -0.005245313
-0.028986737 -0.09256112 0.07095272 0.042035658 0.13931356 -0.022387221 -0.058045324 -0.06015344
-0.065386236 -0.018964693 -0.0030821718 -0.119563244 -0.146045 0.10466618 -0.09533386 -0.6625269
-0.06787029 -0.037988715 -0.05201922 0.08258652 0.077113256 -0.02619441 -0.06871602 0.19071181
-0.00359559 -0.040246166 -0.026194852 0.10970567 0.1012534 -0.10553585 -0.06825335 -0.026022539
-0.07697299 0.06261436 -0.013701524 0.11880004 -0.07138551 0.1257175 0.11142208 -0.026653916
0.0050499523 -0.07534968 -0.023086548 0.0041655335 0.005004242 -0.014959129 -0.08062016 -0.54168385
0.18088269 -0.21330932 0.029891878 0.043570716 -0.10123056 -0.22316372 -0.064075984 0.05536106
0.10002849 -0.002201021 0.011335396 -0.028835293 -0.025720175 0.02091165 0.15516512 -0.06565194
00000000: fdfb a93d 6b6c a33d 98d4 a73c 8bc3 0ebe
00000010: 7050 4ebd 689a de3d c639 7c3d a34b b43d
00000020: 8728 203c 5d5c 8a3d bd4c 8abd 78ba 8ebc
00000030: 3ba5 8e3d c768 d53d 768f bebd ec82 75be
00000040: 99a1 b1bd 808e f0ba 58b1 4a3d 1cff e13d
00000050: 950c b23d fb3d 643d e1dc 67bd de51 58bd
00000060: 78af 3ebc be39 3abd 2d0a 883d ad6c 003e
00000070: 12e7 8d3d 6921 523d c61d 87be 9051 3abe
00000080: d288 1b3e 3044 07be f685 9a3c a710 903d
00000090: 8e33 e3bc 35b9 e63c b3df c13d 9f68 86bc
000000a0: 2df3 bc3d 38b3 49bd 2d7b b4bc 7b6c cfbd
000000b0: 3c1e 16bd 2cb0 23be bf44 8dbc 582a dc3d
000000c0: 02f9 aabc 381b 7e3d c043 9fba 4ca4 82bc
000000d0: d6bf 723d 57a5 df3d 1dae 79bc b314 8b3c
000000e0: 0852 273e 95aa 40be 365b adbd 506f ccbb
000000f0: 2e03 20bd 1c41 8cbd 63a5 c73d 22bb f7ba
00000100: fcea d93c 2d3a e53d ee4c 0d3d d1f6 a73d
00000110: 8ac9 0abd 5c8c b2bd e719 2d3e 7275 59be
00000120: acfa efbc 129c 1dbd 7e5e ab3d cf14 a73d
00000130: 53e7 d3bd 454c c4bd c4b8 a73d 57ae 9ebd
00000140: 33ae 91bd fc4a b83c ee9a d83c 5d03 debd
00000150: f05e b8bb 30b0 b7bc 3e04 7b3d 3324 da3d
00000160: e0b4 893d e017 9d3d 0ca4 dcbd 1733 d33c
00000170: 1402 adbd 1a88 76be 95d6 cfbd 0a70 2ebd
00000180: d413 4c3e 5900 80be 094f 0b3e 507b 3a3b
00000190: ef4b 063e 1f33 34be 70e7 a1bd 50f3 7f3b
000001a0: 1bd9 3ebd 2c74 d9bc 0b52 3bbd cdd4 94bd
000001b0: 5473 01be e030 96bc 3ea5 82bc 849b a83b
000001c0: b96f 66bd 7013 0fbc b287 80bd 7ad3 a3bd
000001d0: 38d8 bbbd 571d b93d 07cb ad3d d672 973d
000001e0: ed94 2f3e b79c 55be 559f cc3d ec8c ccbd
000001f0: 9c03 9bbd f477 bfbd 52d9 f7bd 5df7 f7bb
00000200: 1574 153e 8523 04be cd97 d53d 72a2 bebd
00000210: 3047 353d 1c2e 843d 6c74 a23d b739 e33d
00000220: 6454 debc f3c0 9fbd e8fa 1ebd bed1 a8bd
00000230: 6882 1c3e da78 4cbe b27b 39bd 5f8c 6dbd
00000240: f0f2 f6bc 8086 e7bb d55b 113e a171 3ebe
00000250: d7d0 e93d dbbf 1cbd 4db3 9a3d e203 f23d
00000260: 41da 173d 07fb 033e 14bb e5bc 1e22 a6bd
00000270: a40e 353e 6737 5bbe 3ea1 173e a4ce 24bc
00000280: af72 babd b4b3 c0bc 3fa5 14be 0c16 553c
00000290: b64f 61bd 80c0 80bb 85d6 883d c223 b83c
000002a0: dc67 a2bd 8904 b6bd 9c48 a33d 791a 543d
000002b0: 9605 b33c c98a 3b3d 389a fcbc e023 08bd
000002c0: 1fab 743d 02e3 bf3d c7d2 edbc 84ae cd3d
000002d0: 18f7 0c3d 8320 2d3d 4b54 c0bd df73 bf3c
000002e0: 8184 80bd a5e7 923d 93e8 163e 31a3 94bc
000002f0: 6610 f53d 41f2 a8bd d427 56bd e0e0 abbb
00000300: 9875 edbc af90 bdbd a94f 913d 952d 2c3d
00000310: 37a8 0e3e 6865 b7bc efc0 6dbd 7463 76bd
00000320: 38e9 85bd d85b 9bbc 43fe 49bb 93dd f4bd
00000330: d28c 15be 395b d63d 663e c3bd 5d9b 29bf
00000340: 94ff 8abd 0e9a 1bbd 1b12 55bd 1f23 a93d
00000350: 8eed 9d3d a995 d6bc fcba 8cbd f549 433e
00000360: fda3 6bbb 2ad9 24bd 9696 d6bc 5ead e03d
00000370: f15d cf3d 2e23 d8bd 6ac8 8bbd 382d d5bc
00000380: 04a4 9dbd f53b 803d 5b7c 60bc 6f4d f33d
00000390: 9132 92bd 17bc 003e 4231 e43d 5059 dabc
000003a0: 127a a53b ef50 9abd 0020 bdbc 077f 883b
000003b0: a0fa a33b 2217 75bc 2f1c a5bd cbab 0abf
000003c0: 5039 393e c26d 5abe d0df f43c 3577 323d
000003d0: f851 cfbd 0885 64be 453a 83bd 47c2 623d
000003e0: bddb cc3d 013f 10bb 19b8 393c fe37 ecbc
000003f0: 1eb3 d2bc e94e ab3c 9be3 1e3e 8674 86bd

const_fold_opt__157 f4 [1, 256, 1]
-0.055544715 0.04690492 -0.018972958 -0.052826814 -0.0646401 0.0 -0.057537895 0.08727892
0.0 -0.03857686 -0.096964836 0.0 0.0 -0.034945384 -0.06946227 0.098964766
-0.035517696 -0.077277295 -0.004285124 -0.06818735 -0.06762246 0.0014044753 0.011193328 -0.054602064
-0.03471165 0.0 -0.1016595 -0.005028891 -0.024791084 0.0 0.0 -0.056531448
-0.100902416 -0.08425336 0.0 -0.011493415 0.0 -0.09512293 0.0 -0.04770433
-0.003355058 -0.02202353 0.0 -0.056557514 -0.08459634 -0.0041083605 0.069258645 0.0
-0.007680985 -0.11773478 -0.009150156 -0.00073841616 0.0 0.048868485 0.03205573 -0.00800121
0.0 0.0 -0.014295917 -0.05307065 -0.011946186 -0.058982234 0.0 0.011642359
-0.03810443 -0.035743985 -0.065491624 -0.066881634 0.0 0.0 -0.010541741 0.0
0.0 -0.0092328815 -0.07739513 -0.024946474 -0.10159538 0.0 -0.012850988 -0.09974736
0.0 0.031792376 0.0 -0.07437081 0.0 -0.07630727 -0.05617459 0.0
-0.029987773 -0.061455417 -0.06559826 -0.005244635 -0.0126927635 -0.100002 -0.083482295 0.0
0.0 -0.081229575 -0.094449185 0.0 0.0 0.05294112 -0.01664772 0.07926532
0.0 -0.028043708 -0.052622087 -0.0018269357 -0.0048750574 -0.030842228 -0.050197214 0.0
-0.0067676916 -0.033584196 -0.014294994 -0.08005713 -0.0046954723 -0.005282396 -0.006444262 0.06672066
-0.011890179 -0.062471367 0.08397865 -0.007909935 -0.03245412 -0.010088497 -0.02070214 -0.089232884
-0.111309476 -0.040166385 0.11046233 -0.04017754 -0.049681667 -0.0036531405 -0.08984285 -0.07886523
-0.0075951307 -0.088966236 0.094142996 -0.038919665 -0.051249787 -0.013542343 -0.07539364 -0.009411735
0.08683437 -0.011718706 -0.09101318 0.0 0.08473826 0.0 -0.004796776 -0.03259361
-0.04191963 0.07537274 0.0 -0.005499985 -0.073274024 0.058347482 -0.032533344 -0.0057824687
0.10807033 -0.09569402 -0.009125353 -0.011891362 -0.007839661 0.0 0.056021806 -0.0006950113
0.0 0.0 -0.0054463763 0.04908332 -0.031320926 0.0 -0.005455457 -0.06407849
-0.09525168 -0.10783249 -0.09535755 -0.037969526 0.0 -0.012777942 -0.12438243 0.08012776
-0.038370926 0.0 0.0 -0.0049083885 -0.005097731 -0.010991506 -0.062346455 -0.08140705
-0.008409505 -0.041899554 -0.09716495 0.0079119345 0.100023866 0.00015334849 -0.0051066764 -0.035646323
-0.042800423 -0.046715677 -0.05751154 -0.07917809 -0.049280047 0.0 0.0 -0.023090158
-0.034776043 -0.09384252 0.0 0.0 -0.038224578 -0.027282504 -0.041348778 -0.011409138
-0.043281414 0.0 -0.043572947 0.0 -0.0055329986 -0.10335324 -0.048651837 -0.07905939
-0.10347153 0.0 -0.039856866 0.043234907 -0.08027996 -0.08306878 -0.04476456 0.0
0.08295926 -0.0067488076 -0.047830716 -0.08124458 -0.04341573 -0.016491342 0.08784155 -0.053251997
-0.04957988 -0.039068695 -0.038624275 -0.0027031507 0.0 0.0 -0.0033205557 -0.009867055
-0.0102743 -0.04032462 -0.047664948 -0.08264325 0.0 -0.028767949 -0.014463935 -0.04236239
00000000: db82 63bd 601f 403d 2d6d 9bbc ee60 58bd
00000010: 0762 84bd 0000 0000 dbac 6bbd 4abf b23d
00000020: 0000 0000 c502 1ebd 8095 c6bd 0000 0000
00000030: 0000 0000 e422 0fbd 3c42 8ebd 0aae ca3d
00000040: 017b 11bd 8f43 9ebd 3a6a 8cbb cfa5 8bbd
00000050: a57d 8abd 5f16 b83a 3864 373c 6aa6 5fbd
00000060: ce2d 0ebd 0000 0000 db32 d0bd 65c9 a4bb
00000070: ac16 cbbc 0000 0000 0000 0000 858d 67bd
00000080: eda5 cebd 078d acbd 0000 0000 e04e 3cbc
00000090: 0000 0000 d0cf c2bd 0000 0000 9e65 43bd
000000a0: 88e0 5bbb b16a b4bc 0000 0000 daa8 67bd
000000b0: d940 adbd 6d9f 86bb 7ad7 8d3d 0000 0000
000000c0: c6b0 fbbb ef1e f1bd 89ea 15bc 4592 41ba
000000d0: 0000 0000 522a 483d de4c 033d 8217 03bc
000000e0: 0000 0000 0000 0000 6c39 6abc 9c60 59bd
000000f0: f0b9 43bc 5b97 71bd 0000 0000 98bf 3e3c
00000100: 6413 1cbd 4968 12bd 7920 86bd 3df9 88bd
00000110: 0000 0000 0000 0000 44b7 2cbc 0000 0000
00000120: 0000 0000 8345 17bc 5781 9ebd 8c5c ccbc
00000130: 3d11 d0bd 0000 0000 f38c 52bc 5848 ccbd
00000140: 0000 0000 b938 023d 0000 0000 b94f 98bd
00000150: 0000 0000 fc46 9cbd 5417 66bd 0000 0000
00000160: eba8 f5bc adb8 7bbd 6158 86bd 30db abbb
00000170: 4ff5 4fbc d9cd ccbd c4f8 aabd 0000 0000
00000180: 0000 0000 b15b a6bd 936e c1bd 0000 0000
00000190: 0000 0000 cad8 583d cd60 88bc db55 a23d
000001a0: 0000 0000 ebbb e5bc 428a 57bd ca75 efba
000001b0: f2be 9fbb d7a8 fcbc 989b 4dbd 0000 0000
000001c0: 83c3 ddbb 958f 09bd 8d35 6abc fef4 a3bd
000001d0: 7adc 99bb f317 adbb 632a d3bb d7a4 883d
000001e0: 06cf 42bc fae1 7fbd 00fd ab3d ac98 01bc
000001f0: 9dee 04bd 394a 25bc 8997 a9bc bbbf b6bd
00000200: 39f6 e3bd 8285 24bd 133a e23d 3491 24bd
00000210: 017f 4bbd 8769 6fbb 87ff b7bd 1884 a1bd
00000220: 93e0 f8bb ee33 b6bd 0bce c03d 3a6a 1fbd
00000230: 4ceb 51bd b4e0 5dbc fb67 9abd ae33 1abc
00000240: 38d6 b13d d1ff 3fbc 1e65 babd 0000 0000
00000250: 418b ad3d 0000 0000 462e 9dbb e180 05bd
00000260: ebb3 2bbd 065d 9a3d 0000 0000 3839 b4bb
00000270: b110 96bd c5fd 6e3d af41 05bd dd7a bdbb
00000280: fa53 dd3d 3afb c3bd 8182 15bc fdd3 42bc
00000290: ec71 00bc 0000 0000 1f77 653d 6b31 36ba
000002a0: 0000 0000 0000 0000 8477 b2bb 970b 493d
000002b0: 5f4a 00bd 0000 0000 b1c3 b2bb 953b 83bd
000002c0: 5013 c3bd 48d7 dcbd d24a c3bd ef85 1bbd
000002d0: 0000 0000 935a 51bc 37bc febd 061a a43d
000002e0: d52a 1dbd 0000 0000 0000 0000 8cd6 a0bb
000002f0: de0a a7bb b815 34bc ff5e 7fbd bdb8 a6bd
00000300: 05c8 09bc de9e 2bbd 6bfe c6bd 0fa1 013c
00000310: 50d9 cc3d 2ccc 2039 e855 a7bb e101 12bd
00000320: 7f4f 2fbd f058 3fbd 3891 6bbd 1f28 a2bd
00000330: e0d9 49bd 0000 0000 0000 0000 9227 bdbc
00000340: 5371 0ebd 8230 c0bd 0000 0000 0000 0000
00000350: 6091 1cbd 8f7f dfbc 565d 29bd 65ed 3abc
00000360: da47 31bd 0000 0000 8c79 32bd 0000 0000
00000370: 284e b5bb ddaa d3bd 2647 47bd e4e9 a1bd
00000380: e2e8 d3bd 0000 0000 f440 23bd 1617 313d
00000390: d269 a4bd f71f aabd 0b5b 37bd 0000 0000
000003a0: 8be6 a93d 1a25 ddbb 24ea 43bd 8f63 a6bd
000003b0: b1d4 31bd da18 87bc 45e6 b33d c41e 5abd
000003c0: 4614 4bbd 7f06 20bd 7d34 1ebd 5827 31bb
000003d0: 0000 0000 0000 0000 ae9d 59bb 6ea9 21bc
000003e0: 8a55 28bc 6e2b 25bd 523c 43bd dd40 a9bd
000003f0: 0000 0000 c3aa ebbc 24fa 6cbc 2f84 2dbd

W0__62 f4 [1, 400, 100]
0.08130476 0.02780554 -0.028201059 0.057721943 -0.016692989 -0.041116264 0.16397028 0.08243623
0.092642635 -0.0053032325 0.05164954 -0.02300832 -0.059720047 0.09918466 -0.07334784 -0.012618728
-0.090765394 0.013430396 -0.12062998 0.102541156 0.06857384 0.05383879 -0.053783756 0.0017195166
0.18673687 0.008136743 0.06150597 -0.17341703 -0.033891223 0.06826165 0.12874487 -0.19456764
-0.08099802 -0.013468765 0.121670865 0.008024879 0.015758362 0.0602961 -0.07919886 0.058062505
-0.07884913 -0.09306007 -0.028518885 0.030618124 -0.12906507 0.16767189 0.031574603 -0.106375724
0.08902674 0.12371847 0.022529088 0.12306227 -0.079235174 0.019369442 0.11381846 0.04499004
0.024836268 0.039414242 -0.031317357 0.13418293 0.004543395 -0.19682392 0.080246426 -0.025051847
-0.11275784 -0.03984356 0.030330876 0.048416942 0.07815438 0.045800276 -0.06464193 -0.023814715
-0.06557056 0.023479464 -0.061197046 -0.0034971775 0.05967672 0.11206173 -0.008634009 0.03477621
-0.1457076 0.05093234 -0.10871309 0.005518226 -0.1020622 -0.055630445 0.13727295 -0.011336985
-0.043904893 0.14621803 0.047282442 -0.02078009 0.0958501 0.047487933 0.018476145 0.06635862
-0.07788209 -0.045887582 0.07385578 -0.03273612 0.044348776 0.04876483 0.07944089 -0.039093465
-0.14106302 -0.17282552 0.09310592 -0.052973628 0.046033148 0.009086072 -0.0039789006 0.071283266
0.06816691 -0.016124446 -0.0647793 0.026305905 -0.26841688 -0.016349452 -0.049524188 0.037231788
-0.03458869 -0.057353474 -0.03295473 0.07054838 0.15039799 -0.04514189 -0.18123789 0.04360318
-0.02313394 0.08893647 -0.06918495 -0.021155884 -0.028694259 -0.040337514 0.10879987 0.08544767
0.03700678 -0.053760644 0.09912637 0.02402915 -0.034933537 -0.06924557 0.0063471547 0.13949479
-0.044274487 0.07107174 0.13638529 0.13656522 -0.042658933 0.01766419 0.18421473 -0.024219798
-0.11156851 -0.0010746333 0.10190805 -0.14436516 0.10715943 0.08589474 -0.022316882 0.1506875
0.0379833 -0.17850775 -0.115988545 -0.0061573437 -0.06380838 -0.096084595 -0.13856715 -0.012441023
0.08613611 -0.04396628 -0.022497613 -0.038190603 -0.062788755 0.010514244 0.004076783 -0.04104747
0.00090764515 -0.05070354 0.015697313 0.028168548 -0.07520872 -0.11133134 -0.15657169 -0.051129524
-0.055600002 -0.043782137 0.08064865 -0.12858647 0.068116404 0.016034843 0.00782742 -0.027014663
-0.028858261 0.10650876 0.123345695 0.046159677 -0.07736429 0.061479572 -0.0038146148 0.089400485
-0.106025286 0.039415795 0.042461984 -0.08771881 0.041944645 -0.043244 -0.037899613 0.051500596
-0.002222608 -0.044421222 0.11817251 0.12681596 -0.022340031 0.08302664 -0.120126344 -0.029406082
0.003214094 -0.16716918 0.10924295 0.017117932 0.03585385 -0.08730681 -0.053088974 -0.010157441
0.042754684 0.08456139 -0.033220902 -0.07593001 0.11459578 -0.055913802 -0.005485806 -0.11568243
-0.001436521 -0.07878631 0.1337748 0.077333964 0.017591802 0.1814897 0.08736129 0.052895978
-0.021662602 0.12082296 0.083931595 -0.0881707 0.011793964 0.041547697 0.111061506 -0.03504991
0.09192678 0.020762265 0.2697092 -0.03068063 0.07073227 -0.062004168 0.0581413 0.010749768
00000000: 1c83 a63d 72c8 e33c e805 e7bc d86d 6c3d
00000010: bcbf 88bc 8769 28bd d3e7 273e 53d4 a83d
00000020: 6cbb bd3d bdc6 adbb 788e 533d f27b bcbc
00000030: 029d 74bd 5421 cb3d 6437 96bd c8be 4ebc
00000040: 35e3 b9bd 2a0b 5c3c da0c f7bd 1901 d23d
00000050: 7170 8c3d 1086 5c3d 5b4c 5cbd 6761 e13a
00000060: f337 3f3e f94f 053c afed 7b3d 3c94 31be
00000070: 86d1 0abd c4cc 8b3d b2d5 033e bd3c 47be
00000080: 4ae2 a5bd 18ac 5cbc 932e f93d c87a 033c
00000090: ae17 813c 0bf9 763d 0333 a2bd f3d2 6d3d
000000a0: a77b a1bd 4796 bebd 70a0 e9bc dcd2 fa3c
000000b0: a229 04be 2eb2 2b3e 5f54 013d 84db d9bd
000000c0: a753 b63d 1c60 fd3d ec8e b83c 1208 fc3d
000000d0: 0d46 a2bd aaac 9e3c a719 e93d 7a47 383d
000000e0: 6e75 cb3c d470 213d a146 00bd 4067 093e
000000f0: c2e0 943b 368c 49be 3d58 a43d 8839 cdbc
00000100: 95ed e6bd 0033 23bd 7578 f83c d850 463d
00000110: 670f a03d 1299 3b3d fd62 84bd 1417 c3bc
00000120: dc49 86bd 0158 c03c c1a9 7abd e730 65bb
00000130: 946f 743d 9f80 e53d a975 0dbc 8071 0e3d
00000140: 6034 15be 6e9e 503d f8a4 debd 3cd2 b43b
00000150: fd05 d1bd c0dc 63bd 4891 0c3e c3be 39bc
00000160: 9ed5 33bd 2eba 153e 3cab 413d 023b aabc
00000170: 0f4d c43d b582 423d 495b 973c 07e7 873d
00000180: a580 9fbd 9ef4 3bbd b341 973d 4f16 06bd
00000190: 10a7 353d a1bd 473d e8b1 a23d 7820 20bd
000001a0: d372 10be 2cf9 30be 51ae be3d e0fa 58bd
000001b0: 418d 3c3d c0dd 143c 7061 82bb f6fc 913d
000001c0: 189b 8b3d 6a17 84bc 02ab 84bd 7b7f d73c
000001d0: f06d 89be 49ef 85bc e0d9 4abd 5c80 183d
000001e0: dfac 0dbd 7aeb 6abd 8afb 06bd ab7b 903d
000001f0: ee01 1a3e b4e6 38bd 6d96 39be 4099 323d
00000200: 6383 bdbc 5324 b63d d7b0 8dbd 1b4f adbc
00000210: 3910 ebbc f338 25bd 77d2 de3d 30ff ae3d
00000220: 6c94 173d 1f34 5cbd c402 cb3d c8d8 c43c
00000230: 7816 0fbd 9fd0 8dbd cbfb cf3b b9d7 0e3e
00000240: 2a59 35bd 0f8e 913d 96a8 0b3e c1d7 0b3e
00000250: 22bb 2ebd 7eb4 903c c9a2 3c3e 9968 c6bc
00000260: 087e e4bd b6da 8cba 2bb5 d03d 76d4 13be
00000270: 6776 db3d 95e9 af3d e5d1 b6bc d34d 1a3e
00000280: 6094 1b3d bcca 36be 678b edbd 8bc3 c9bb
00000290: f8ad 82bd 00c8 c4bd 8ce4 0dbe 6fd5 4bbc
000002a0: 2168 b03d fc15 34bd ea4c b8bc c06d 1cbd
000002b0: 6497 80bd f043 2c3c 8996 853b 6421 28bd
000002c0: 09ef 6d3a 84ae 4fbd a797 803c bac1 e63c
000002d0: 0807 9abd b001 e4bd 5454 20be 316d 51bd
000002e0: d4bc 63bd e654 33bd 1f2b a53d 2cac 03be
000002f0: 9d80 8b3d 815b 833c 943e 003c db4d ddbc
00000300: 2968 ecbc 4421 da3d ab9c fc3d ee11 3d3d
00000310: 2b71 9ebd 01d2 7b3d 9efe 79bb 9a17 b73d
00000320: c923 d9bd 7572 213d 9eec 2d3d eba5 b3bd
00000330: 26ce 2b3d 9f20 31bd a03c 1bbd 4af2 523d
00000340: 2da9 11bb 07f3 35bd 6e04 f23d 0bdc 013e
00000350: 7102 b7bc df09 aa3d cd04 f6bd 06e5 f0bc
00000360: 8da3 523b 662e 2bbe c5ba df3d e83a 8c3c
00000370: 7ddb 123d eacd b2bd d373 59bd 656b 26bc
00000380: 891f 2f3d 862e ad3d a412 08bd 3181 9bbd
00000390: 31b1 ea3d df05 65bd 47c2 b3bb e9ea ecbd
000003a0: a549 bcba b85a a1bd 43fc 083e 4561 9e3d
000003b0: af1c 903c 70d8 393e 7aea b23d 74a9 583d
000003c0: c575 b1bc 0772 f73d 54e4 ab3d d792 b4bd
000003d0: 783b 413c eb2d 2a3d 3774 e33d 7f90 0fbd
000003e0: 1c44 bc3d a015 aa3c 5317 8a3e f255 fbbc
000003f0: 15dc 903d 15f8 7dbd 9225 6e3d cb1f 303c

W0__41 f4 [1, 400, 256]
-0.06519045 -0.08554726 0.011223176 -0.1014629 -0.11549666 -0.031664677 -0.030093592 0.014471604
0.048974834 -0.035678655 -0.12679993 -0.053068124 0.030112855 -0.045403827 -0.12708198 -0.0278377
0.057743795 -0.048742972 -0.059477072 -0.10290335 -0.080736704 0.014790745 -0.0024264024 -0.042635754
-0.096326895 0.019983709 -0.1557676 -0.03364749 0.030715598 -0.023137026 -0.042242985 -0.086859606
-0.12180082 0.020100452 0.069938995 0.048647687 -0.006561272 -0.0874028 0.024357773 -0.030330997
-0.025399277 0.054673333 0.022390068 -0.11833385 -0.14090666 -0.06827901 -0.01757357 0.094082884
0.058181755 -0.06499682 0.0814667 -0.0346136 0.083846964 -0.011387922 -0.020095207 -0.044584427
-0.06208448 0.019607618 -0.040603172 -0.17485867 0.0011317316 0.07658251 0.018692687 -0.09436795
0.0036780813 0.08008828 -0.06369048 -0.15275128 -0.04562035 0.036054157 0.07052175 -0.063909695
-0.09160194 0.029380307 0.014965019 -0.06705884 -0.13129613 -0.017947376 0.050062787 -0.016651977
-0.0671762 0.042287536 -0.050480265 -0.035119224 -0.05055111 -0.12893838 0.035903465 0.03472521
-0.15317544 0.015839325 -0.098553106 0.07455789 -0.07461845 -0.023960706 -0.03149221 -0.010355219
-0.04682208 -0.060865358 0.008821697 0.0068473667 -0.026857771 -0.11276992 0.037832372 0.08752854
0.060535826 0.0075514964 -0.062363848 -0.13319787 0.061562486 -0.048662342 -0.035779066 0.02641736
0.062196963 -0.08605061 -0.029736325 -0.0018485883 0.07701201 0.052834984 0.052384473 0.056104958
0.065697215 -0.058553413 -0.040884648 -0.034556367 -0.16120239 -0.066278644 0.004228901 0.1480472
-0.055545535 -0.10187648 -0.16909918 0.016050613 -0.013333065 0.058084764 -0.14326595 -0.11613126
-0.09531761 -0.04146705 -0.183392 -0.0343374 -0.13743348 0.07184867 -0.038610205 0.057767157
0.02646622 0.005855857 0.07830612 -0.079256035 -0.09914603 0.06429917 -0.08071804 -0.04365896
-0.095799856 -0.09671996 -0.0476259 0.08266681 -0.17271703 -0.047473453 0.069386326 0.0072273635
0.009225394 -0.037292164 -0.04403001 -0.028290333 0.015916135 -0.057066802 -0.0088714305 -0.015982367
-0.09095419 0.039482497 0.07425653 -0.12727593 -0.113563776 0.013039686 0.0034912548 -0.111890286
-0.10133587 -0.20636839 -0.027401915 -0.027553374 0.033772103 -0.0035246788 -0.09103659 0.011120832
-0.0184949 0.06427594 -0.027492799 0.0828235 0.056001756 0.09328901 -0.12092746 -0.07321952
-0.07143152 -0.08319192 -0.07546601 -0.06028647 -0.050964512 0.043925513 0.04306178 -0.047869742
-0.15321222 -0.10092144 -0.079619475 -0.026980955 -0.042595092 0.004826121 -0.067116186 -0.11052463
0.014146601 0.004805581 -0.019389547 -0.000973694 -0.112279736 -0.03167173 -0.07146006 0.026611598
0.07167992 0.092126004 -0.0057415874 0.048370875 -0.05137983 0.016474286 -0.11340778 -0.06749121
-0.06569797 -0.009416021 0.053699158 -0.0989004 -0.033379257 -0.118137605 -0.124851026 0.01617068
-0.05574123 0.08435385 0.026054457 -0.08264156 -0.012823786 0.06903261 -0.038455006 -0.08994952
-0.11120197 0.024363827 0.0974468 0.08838337 0.07117561 0.033533968 0.017970107 0.10516128
0.048144333 -0.14672615 -0.07484862 -0.039194174 -0.028980367 -0.07475251 -0.10743234 0.018785007
00000000: 9282 85bd 6733 afbd 69e1 373c c8cb cfbd
00000010: 8389 ecbd d2b2 01bd d686 f6bc 4e1a 6d3c
00000020: d699 483d c823 12bd d7d7 01be f65d 59bd
00000030: 3caf f63c 5df9 39bd c721 02be e30b e4bc
00000040: c284 6c3d b6a6 47bd 3b9e 73bd febe d2bd
00000050: 4959 a5bd e254 723c 4704 1fbb d4a2 2ebd
00000060: 0947 c5bd e0b4 a33c 8b81 1fbe f3d1 09bd
00000070: 479f fb3c dc89 bdbc fb06 2dbd 73e3 b1bd
00000080: b572 f9bd b4a9 a43c 2d3c 8f3d cc42 473d
00000090: f0ff d6bb 3d00 b3bd f489 c73c b678 f8bc
000000a0: 2512 d0bc 25f1 5f3d 606b b73c 0459 f2bd
000000b0: d649 10be ded5 8bbd 73f6 8fbc 87ae c03d
000000c0: fe4f 6e3d 0e1d 85bd 03d8 a63d fdc6 0dbd
000000d0: f5b7 ab3d 6894 3abc b49e a4bc 299e 36bd
000000e0: 4c4c 7ebd 28a0 a03c 834f 26bd 270e 33be
000000f0: 9c56 943a 4ad7 9c3d 6821 993c fc43 c1bd
00000100: f70b 713b 5305 a43d 2870 82bd d56a 1cbe
00000110: 67dc 3abd 86ad 133d b56d 903d 16e3 82bd
00000120: cc99 bbbd f8ae f03c d72f 753c 2556 89bd
00000130: 7e72 06be 6006 93bc a30e 4d3d ba69 88bc
00000140: ad93 89bd b235 2d3d 65c4 4ebd 2dd9 0fbd
00000150: ae0e 4fbd 6c08 04be 830f 133d 063c 0e3d
00000160: 06da 1cbe 79c1 813c 36d6 c9bd cfb1 983d
00000170: 8fd1 98bd 3e49 c4bc fafd 00bd f0a8 29bc
00000180: 82c8 3fbd f44d 79bd e188 103c e05f e03b
00000190: d404 dcbc eaf3 e6bd 1ef6 1a3d 2a42 b33d
000001a0: 6af4 773d 8b72 f73b 3c71 7fbd 0665 08be
000001b0: f228 7c3d 2a52 47bd 128d 12bd 3869 d83c
000001c0: 3ec2 7e3d 4d3b b0bd 9899 f3bc 554c f2ba
000001d0: 79b8 9d3d 7f69 583d 1a91 563d 50ce 653d
000001e0: 438c 863d b4d5 6fbd a976 27bd fa8a 0dbd
000001f0: 3d12 25be 19bd 87bd 9892 8a3b af99 173e
00000200: b783 63bd 9ea4 d0bd 5628 2dbe 937c 833c
00000210: ee72 5abc 4aea 6d3d 4fb4 12be 3ad6 edbd
00000220: e135 c3bd 5ad9 29bd 1dcb 3bbe 60a5 0cbd
00000230: 5dbb 0cbe 6525 933d bc25 1ebd 419d 6c3d
00000240: b0cf d83c 7de2 bf3b f65e a03d fd50 a2bd
00000250: 130d cbbd 49af 833d 804f a5bd bdd3 32bd
00000260: b732 c4bd 1d15 c6bd 6013 43bd 374d a93d
00000270: bcdc 30be 8673 42bd 6b1a 8e3d 85d3 ec3b
00000280: 1b26 173c abbf 18bd d058 34bd 21c1 e7bc
00000290: 8e62 823c e1be 69bd 7a59 11bc 74ed 82bc
000002a0: 3146 babd 66b8 213d cf13 983d 9f54 02be
000002b0: 2094 e8bd 68a4 553c 89cd 643b bc26 e5bd
000002c0: 2e89 cfbd 3c52 53be fb79 e0bc 9db7 e1bc
000002d0: 9e54 0a3d 4cfe 66bb 6471 babd 2634 363c
000002e0: 9e82 97bc 1ba3 833d 9438 e1bc 5e9f a93d
000002f0: 1962 653d 4f0e bf3d d1a8 f7bd 1ef4 95bd
00000300: b04a 92bd 8660 aabd ec8d 9abd f2ee 76bd
00000310: 2ac0 50bd 3deb 333d 8d61 303d 1013 44bd
00000320: aae3 1cbe e6af cebd 890f a3bd 2a07 ddbc
00000330: 3178 2ebd 7024 9e3b 3674 89bd bd5a e2bd
00000340: 25c7 673c 2378 9d3b d4d6 9ebc 803f 7fba
00000350: ebf2 e5bd 37ba 01bd a759 92bd 9100 da3c
00000360: eccc 923d 8fac bc3d ed23 bcbb 8a20 463d
00000370: a873 52bd 15f5 863c 5742 e8bd d538 8abd
00000380: a88c 86bd a845 1abc a6f3 5b3d 4b8c cabd
00000390: b0b8 08bd 21f2 f1bd e5b1 ffbd 6078 843c
000003a0: ea50 64bd b6c1 ac3d 2870 d53c fa3f a9bd
000003b0: db1a 52bc f860 8d3d ff82 1dbd 7437 b8bd
000003c0: dcbd e3bd a696 c73c 3092 c73d 5702 b53d
000003d0: 85c4 913d ea5a 093d 0c36 933c cc5e d73d
000003e0: fe32 453d 613f 16be 3c4a 99bd 128a 20bd
000003f0: 3c68 edbc d817 99bd 7d05 dcbd 04e3 993c

R0__63 f4 [1, 400, 100]
0.0949811 -0.011685953 0.030118655 0.015646234 0.026293295 -0.06044702 -0.005690077 0.0382462
0.0004796831 -0.005433772 0.069338016 -0.019481238 -0.005848134 0.018548427 0.07598416 -0.03801337
0.054459658 0.070003696 -0.032712907 0.031338263 -0.093620636 0.056121048 -0.034512818 -0.024255916
0.07715532 0.05672135 -0.09997646 0.046891335 -0.04033651 0.008970932 0.1528871 0.014592103
-0.0031154843 -0.0015076101 0.05242358 -0.034902558 0.021671966 0.11906447 0.092937 0.019988943
-0.030313056 -0.07079954 -0.096333236 0.10800522 0.038114768 -0.058678195 0.0113989925 -0.045354947
-0.013936194 0.038987126 0.086787894 -0.025347512 0.028690416 -0.0345791 -0.032341335 0.08466564
-0.042494375 -0.07689099 -0.012320815 -0.09412826 -0.13953333 0.010618979 0.029333591 0.098925166
-0.06619186 0.06974252 0.07236434 0.07350857 -0.050500482 -0.05090819 -0.054817904 -0.054866273
-0.027392576 0.047431685 -0.118935786 -0.07570156 -0.05832928 -0.08213197 0.014520714 0.11399659
0.030740876 0.016095059 -0.032178614 0.01515044 -0.02822373 -0.034358382 -0.009452523 0.0047171405
0.05905285 -0.07804095 0.07680024 0.009753959 -0.053580683 -0.031915188 0.015154749 0.045758225
-0.023277955 0.06447964 -0.07252964 -0.034401342 0.032199018 0.050870314 0.06215593 0.03468463
0.117615566 0.07139092 -0.022454077 0.0123511385 0.06523784 -0.059656348 0.12199267 -0.038118992
0.018810466 0.16033098 -0.01245723 0.022371061 0.06412535 0.011570956 -0.020657115 0.05386825
0.0062114582 0.028284065 -0.02096569 0.10456169 0.029824395 -0.032470193 0.04359006 0.018014211
-0.019623617 -0.09425303 -0.034817766 0.008731814 -0.02192534 0.052114412 -0.041643977 0.006340333
-0.08055889 0.102110006 0.05944145 0.04610087 -0.052248638 0.022368407 -0.043160114 0.078363806
0.04888604 -0.05309415 0.015431251 0.027159285 -0.05767891 0.047311824 0.032970343 0.01885731
0.037775885 0.0040381784 0.03603371 -0.012021095 0.02006696 -0.031272084 -0.006921904 0.006421028
-0.03514551 -0.08175815 0.09313478 -0.033809748 -0.046823822 0.066465005 -0.039472517 -0.01433985
0.0044593955 -0.019064741 0.08833959 -0.0658615 0.046959307 0.034119334 -0.032522187 0.07307202
0.05098341 -0.08501502 0.027240058 0.006300803 -0.025606526 -0.11690511 -0.017857434 -0.016161371
-0.06262873 0.016174125 0.05187481 -0.042687457 -0.053572312 0.058842175 0.085638285 0.0023923754
-0.008304949 -0.040648405 0.01873636 -0.0385488 0.011499886 0.111018874 -0.086604625 0.041356128
0.059253134 0.04919828 0.15255731 0.0009540192 0.10065319 0.016504478 -0.048658077 0.047102038
-0.005284158 0.007360672 -0.029474022 -0.035815544 0.017246433 0.010914322 -0.048628677 -0.021132708
0.037176926 -0.14123657 0.04099525 -0.028997067 -0.030599136 0.013303198 -0.21611121 -0.03384642
-0.00070193585 0.042749483 -0.15766323 -0.033823654 -0.06305133 0.018487806 0.07207082 -0.08954737
-0.025511246 -0.07953835 -0.047773853 0.022337342 0.05347486 -0.0011617852 -0.04650978 -0.11104573
0.010062698 0.012124796 -0.08826906 -0.114256896 -0.08516724 -0.09024312 0.010961002 -0.013316086
0.084021 -0.0029493405 -0.015665699 0.005653604 -0.017310297 0.008723602 -0.000526713 -0.024798099
00000000: 7385 c23d 7076 3fbc 66bb f63c 882c 803c
00000010: 0965 d73c 4b97 77bd d373 babb 0ca8 1c3d
00000020: fa7d fb39 c90d b2bb 1701 8e3d 1e97 9fbc
00000030: b4a1 bfbb dff2 973c 959d 9b3d e8b3 1bbd
00000040: 1711 5f3d 195e 8f3d f8fd 05bd 8d5c 003d
00000050: 2dbc bfbd 2fdf 653d 505d 0dbd 58b4 c6bc
00000060: 9c03 9e3d a554 683d 75c0 ccbd 2111 403d
00000070: e537 25bd d1fa 123c 708e 1c3e b713 6f3c
00000080: 272d 4cbb 009b c5ba 1cba 563d fcf5 0ebd
00000090: 6889 b13c 13d8 f33d c155 be3d dabf a33c
000000a0: 1653 f8bc 59ff 90bd 5c4a c5bd d731 dd3d
000000b0: 3b1e 1c3d 8c58 70bd d7c2 3a3c 1cc6 39bd
000000c0: a254 64bc f7b0 1f3d dabd b13d 96a5 cfbc
000000d0: 2a08 eb3c d0a2 0dbd 5978 04bd 2e65 ad3d
000000e0: 950e 2ebd 0679 9dbd 3edd 49bc 51c6 c0bd
000000f0: d3e1 0ebe 3afb 2d3c 004d f03c 4799 ca3d
00000100: 998f 87bd 2bd5 8e3d c133 943d a98b 963d
00000110: 98d9 4ebd 1b85 50bd bd88 60bd 75bb 60bd
00000120: 6566 e0bc ba47 423d 9b94 f3bd 6b09 9bbd
00000130: afea 6ebd ce34 a8bd 4ae8 6d3c 0b77 e93d
00000140: 4ad4 fb3c c9d9 833c b9cd 03bd 8d39 783c
00000150: 7435 e7bc 60bb 0cbd c1de 1abc 3e92 9a3b
00000160: 67e1 713d efd3 9fbd 7249 9d3d 12cf 1f3c
00000170: 6b77 5bbd 80b9 02bd a04b 783c fa6c 3b3d
00000180: 69b1 bebc e70d 843d 6b8a 94bd 6ce8 0cbd
00000190: 1ee3 033d 645d 503d 3797 7e3d 7811 0e3d
000001a0: 6ee0 f03d 6735 923d 9df1 b7bc 6e5c 4a3c
000001b0: 6b9b 853d 375a 74bd 4bd7 f93d a922 1cbd
000001c0: 6818 9a3c ce2d 243e 6919 4cbc 8443 b73c
000001d0: 2754 833d 1b94 3d3c 1c39 a9bc f4a4 5c3d
000001e0: 7d89 cb3b fcb3 e73c 3dc0 abbc 7024 d63d
000001f0: 4a52 f43c 77ff 04bd 7e8b 323d 8a92 933c
00000200: b5c1 a0bc bc07 c1bd 139d 0ebd e20f 0f3c
00000210: c59c b3bc ec75 553d e092 2abd 91c2 cf3b
00000220: 0ffc a4bd 0d1f d13d e178 733d 44d4 3c3d
00000230: ab02 56bd f33d b73c a9c8 30bd 347d a03d
00000240: ba3c 483d 4079 59bd 5cd3 7c3c 267d de3c
00000250: b940 6cbd 0bca 413d e90b 073d a57a 9a3c
00000260: e3ba 1a3d b252 843b 1598 133d 20f4 44bc
00000270: 7763 a43c 2817 00bd 24d1 e2bb 7d67 d23b
00000280: bdf4 0fbd d170 a7bd 73bd be3d 177c 0abd
00000290: 56ca 3fbd ce1e 883d efad 21bd b1f1 6abc
000002a0: 1f20 923b a92d 9cbc 63eb b43d 65e2 86bd
000002b0: 6758 403d b7c0 0b3d fc35 05bd c9a6 953d
000002c0: fbd3 503d 5b1c aebd 8b26 df3c f776 ce3b
000002d0: c7c4 d1bc f26b efbd c149 92bc da64 84bc
000002e0: 7e43 80bd 997f 843c ae7a 543d 0bd9 2ebd
000002f0: a46e 5bbd 7e04 713d 2063 af3d 66c9 1c3b
00000300: 7b11 08bc f17e 26bd ff7c 993c 59e5 1dbd
00000310: 056a 3c3c dd5d e33d c45d b1bd 0b65 293d
00000320: 6ab3 723d 2384 493d fc37 1c3e 2517 7a3a
00000330: 4223 ce3d 6634 873c b14d 47bd 11ee 403d
00000340: bb26 adbb cb31 f13b 8173 f1bc 52b3 12bd
00000350: 6448 8d3c fcd1 323c dd2e 47bd 801e adbc
00000360: d546 183d 52a0 10be a3ea 273d 428b edbc
00000370: 0aab fabc a8f5 593c 424c 5dbe 8ba2 0abd
00000380: 1e02 38ba 151a 2f3d 7872 21be ac8a 0abd
00000390: 0e21 81bd bd73 973c de99 933d 9d64 b7bd
000003a0: f6fc d0bc 01e5 a2bd 84ae 43bd cdfc b63c
000003b0: 7408 5b3d 0b47 98ba 0a81 3ebd f26b e3bd
000003c0: 04de 243c 15a7 463c 69c6 b4bd 85ff e9bd
000003d0: 296c aebd 63d1 b8bd c695 333c b62b 5abc
000003e0: 3413 ac3d b949 41bb 5a55 80bc de41 b93b
000003f0: 53ce 8dbc 70ed 0e3c 1c13 0aba 6225 cbbc

R0__42 f4 [1, 400, 100]
0.06889011 0.14212103 0.0009901817 0.07716104 0.01756702 -0.17011832 0.048476025 0.07691273
0.014892264 0.1392252 -0.03485688 -0.050311435 0.006888807 0.13658613 -0.08596159 -0.16419446
0.011719186 -0.05333342 -0.10592938 -0.07401321 -0.008679611 -0.10329317 -0.045345597 0.20254555
0.092906594 -0.09987025 -0.07229508 -0.18551444 -0.13002056 -0.009520361 -0.040756047 -0.2894148
-0.031803746 -0.108816974 0.07589271 -0.07935135 0.066734135 -0.048337452 -0.029779429 -0.032095753
-0.12901649 -0.16162694 0.0057237195 0.06871415 0.07976591 0.14722767 -0.03183497 0.1440592
-0.107907824 -0.0072566015 0.11046307 0.16354908 -0.023225797 -0.12194305 0.10341682 0.012513957
0.032353934 0.089053765 0.0440475 0.1311526 -0.033266187 -0.30641857 0.027586702 0.031113027
0.038066477 -0.019490732 -0.16280423 0.051547322 0.15650833 -0.06743595 0.15007393 0.07177723
0.14155424 0.17893888 -0.03842665 0.0024431495 -0.041838106 0.0591054 -0.15486807 -0.0656798
-0.31004167 0.04526373 -0.27233928 -0.014268085 0.019582232 0.08391004 0.060936693 -0.18681382
-0.12374944 0.06262531 -0.06829998 0.0112401 0.07912165 0.12582234 -0.056559812 0.08177012
-0.05116784 -0.051140465 0.03922579 -0.07147759 0.09107653 0.04776381 -0.04301614 0.017361443
-0.17898889 -0.0946204 -0.07930187 -0.027136326 0.073936515 0.10305056 0.060912773 0.10673983
-0.077790424 0.019879887 -0.083214596 -0.020240916 -0.2106194 -0.041825116 -0.092479594 -0.012098455
-0.05642451 -0.04014433 0.19924983 0.06933549 0.18731044 -0.010945044 -0.10108311 -0.076659106
-0.081242934 0.019564746 0.072767235 -0.118539006 -0.018666567 -0.1975739 -0.046976764 0.009001017
0.02626539 -0.08368751 -0.0070684184 -0.023995379 -0.030650582 -0.014662212 -0.05663942 0.106794715
0.043376517 0.024320912 -0.12462248 3.067471e-05 0.0012692413 0.0154561 0.007826199 0.031760793
0.025974093 0.04115371 0.012387442 0.021772914 0.0473431 -0.01851926 0.06495959 0.09034397
-0.051481694 -0.14033814 -0.006765112 0.017070945 -0.06069753 -0.0230438 -0.06459667 -0.05608949
0.02594863 -0.025943808 0.03908871 0.14172532 0.092451245 0.07373565 -0.03786801 -0.052101232
-0.14223018 0.120900445 -0.11187263 -0.13171689 -0.0030379484 0.05273244 -0.12316022 0.022990495
-0.012236033 -0.047779527 -0.08572148 -0.20718288 -0.072920196 -0.01132077 0.029735075 0.13032393
0.098982826 0.07529598 -0.07986001 0.04745757 0.014856728 -0.0141222775 0.057881393 0.0781102
-0.07268836 0.08708092 0.06475829 -0.0581724 -0.07719829 -0.049090315 -0.014242999 0.038416747
-0.004854493 0.04911634 0.0064258985 0.081887856 -0.032391306 0.051995385 -0.058068573 -0.01964551
-0.005483623 -0.004001959 -0.074773915 0.04163588 0.016592177 0.01736978 0.0839666 0.16876143
0.04561252 -0.015566291 -0.013053882 -0.031623002 -0.010351712 0.045613714 0.013738439 -0.051340796
0.02003303 -0.0029488406 -0.033176154 0.080690816 -0.0085672615 -0.037557494 -0.013931389 -0.017918099
-0.09120784 -0.022374833 -0.008966995 0.10036188 0.08660187 0.04680598 0.002731562 -0.015021428
0.0922669 -0.119082004 0.1002078 0.10332778 0.0330654 0.017225752 0.03968119 -0.08305064
00000000: 4216 8d3d 2d88 113e fcc8 813a 9b06 9e3d
00000010: b6e8 8f3c 7f33 2ebe cc8e 463d 6c84 9d3d
00000020: affe 733c 0d91 0e3e 16c6 0ebd 5d13 4ebd
00000030: 80bb e13b 3cdd 0b3e a10c b0bd 9822 28be
00000040: d401 403c 2574 5abd 81f1 d8bd 3d94 97bd
00000050: ed34 0ebc 5f8b d3bd 4ebc 39bd 1a68 4f3e
00000060: d045 be3d c688 ccbd 710f 94bd 7ff7 3dbe
00000070: 1c24 05be 4afb 1bbc d0ef 26bd 2d2e 94be
00000080: a544 02bd 6fdb debd a36d 9b3d f682 a2bd
00000090: e8ab 883d 7efd 45bd fdf3 f3bc d676 03bd
000000a0: e61c 04be 8881 25be 0a8e bb3b 01ba 8c3d
000000b0: 4f5c a33d dac2 163e 6365 02bd 4184 133e
000000c0: c7fe dcbd c9c8 edbb 763a e23d 6979 273e
000000d0: 0744 bebc 47bd f9bd 33cc d33d 5707 4d3c
000000e0: 8f85 043d d261 b63d 276b 343d de4c 063e
000000f0: 2042 08bd e5e2 9cbe 82fd e13c bfe0 fe3c
00000100: 98eb 1b3d 07ab 9fbc 27b6 26be 4923 533d
00000110: b843 203e dc1b 8abd fbac 193e f1ff 923d
00000120: 98f3 103e c13b 373e 4365 1dbd 3f1d 203b
00000130: 6f5e 2bbd 8118 723d bc95 1ebe 2283 86bd
00000140: c8bd 9ebe 7666 393d 0e70 8bbe b0c4 69bc
00000150: eb6a a03c 07d9 ab3d c198 793d 1f4c 3fbe
00000160: 5970 fdbd b341 803d dce0 8bbd 6528 383c
00000170: 880a a23d 92d7 003e 43ab 67bd 1877 a73d
00000180: 5e95 51bd aa78 51bd 39ab 203d d862 92bd
00000190: 5586 ba3d fca3 433d b131 30bd 9639 8e3c
000001a0: dd48 37be 57c8 c1bd 0569 a2bd 004d debc
000001b0: 076c 973d 2c0c d33d ac7f 793d 699a da3d
000001c0: 9650 9fbd 25db a23c 6a6c aabd 47d0 a5bc
000001d0: 9dac 57be d050 2bbd f165 bdbd 9938 46bc
000001e0: 631d 67bd 626e 24bd 2608 4c3e c4ff 8d3d
000001f0: 4fce 3f3e d852 33bc a904 cfbd 73ff 9cbd
00000200: b262 a6bd 3f46 a03c fd06 953d 94c4 f2bd
00000210: a1ea 98bc d050 4abe b56a 40bd 0079 133c
00000220: 842a d73c 5b64 abbd 319e e7bb f591 c4bc
00000230: ee16 fbbc c639 70bc bdfe 67bd 30b7 da3d
00000240: 93ab 313d a63c c73c 123a ffbd b8a8 0038
00000250: ac5c a63a 953b 7d3c 7539 003c 9b17 023d
00000260: 9fc7 d43c cb90 283d b3f4 4a3c 1c5d b23c
00000270: d7ea 413d b4b5 97bc 8909 853d 4206 b93d
00000280: 78de 52bd cdb4 0fbe dfad ddbb 5ed8 8b3c
00000290: f99d 78bd 5ac6 bcbc 424b 84bd 18be 65bd
000002a0: 3992 d43c 1c88 d4bc 7c1b 203d 7120 113e
000002b0: 1457 bd3d b702 973d 7d1b 1bbd 1a68 55bd
000002c0: caa4 11be a79a f73d 7a1d e5bd cbe0 06be
000002d0: 5118 47bb f9fd 573d 6d3b fcbd 9056 bc3c
000002e0: a479 48bc 77b4 43bd be8e afbd c027 54be
000002f0: 2f57 95bd c07a 39bc f996 f33c a373 053e
00000300: 82b7 ca3d c734 9a3d a58d a3bd de62 423d
00000310: a269 733c 2061 67bc 0a15 6d3d 3ef8 9f3d
00000320: a3dd 94bd 7b57 b23d ff9f 843d 2f46 6ebd
00000330: 231a 9ebd ed12 49bd 785b 69bc e15a 1d3d
00000340: 7012 9fbb 372e 493d 5890 d23b d2b4 a73d
00000350: bfac 04bd 1df9 543d 50d9 6dbd 9fef a0bc
00000360: f7af b3bb de22 83bb 1123 99bd 628a 2a3d
00000370: 51ec 873c 124b 8e3c aef6 ab3d cccf 2c3e
00000380: 32d4 3a3d c209 7fbc f3df 55bc 1f87 01bd
00000390: 3a9a 29bc 72d5 3a3d 3117 613c ba4a 52bd
000003a0: 4f1c a43c 5641 41bb b8e3 07bd 3a41 a53d
000003b0: b35d 0cbc e3d5 19bd 7b40 64bc fac8 92bc
000003c0: 2dcb babd 6d4b b7bc 4eea 12bc 888a cd3d
000003d0: 525c b13d a1b7 3f3d 0104 333b 6f1c 76bc
000003e0: 6ef6 bc3d 44e1 f3bd bf39 cd3d 849d d33d
000003f0: 966f 073d 051d 8d3c be88 223d 7416 aabd

B0__64 f4 [1, 800]
-0.19085447 -0.13846959 -0.15357342 -0.17666918 -0.08786213 -0.15040426 -0.063236706 -0.13242628
-0.13953492 -0.15075606 -0.18558754 -0.025591513 -0.07765623 -0.14219469 -0.0847765 -0.06892661
-0.15169184 -0.11419085 0.02055718 -0.10713879 -0.04272981 -0.0905744 -0.11418222 -0.14842285
-0.10256943 -0.10928313 -0.1436228 -0.14562629 0.16211878 -0.09033406 0.23559454 -0.09681847
-0.114873864 -0.07607677 -0.105395764 -0.060572263 -0.16104107 -0.16800518 -0.03807457 -0.12840612
-0.12251972 -0.07024891 -0.17577854 -0.11218996 -0.17993417 -0.14577857 -0.12775521 -0.16626796
0.022012716 -0.11834191 0.015038523 -0.10050325 -0.13422449 -0.14196165 -0.15614744 -0.07185261
-0.1473963 -0.034411214 -0.10885606 -0.099411994 -0.1824616 -0.16781272 -0.12570034 -0.09727316
-0.10787073 -0.18214732 -0.15785462 -0.13941069 -0.15230656 -0.19929607 -0.16278276 -0.12691467
-0.11170888 -0.059871 -0.10238614 -0.0925993 -0.039757535 0.017162178 -0.047914594 -0.1500654
-0.15261842 -0.0224572 -0.09184704 -0.11971435 -0.012164696 -0.088352896 -0.0011928302 -0.1597401
-0.112348944 -0.014540282 -0.14767393 -0.113878615 0.08136691 0.119108595 -0.08033669 -0.013962938
0.028276447 -0.116586834 -0.21035583 -0.14711516 -0.21316533 -0.14819723 -0.16256474 -0.20022635
-0.09756336 -0.1632058 -0.077509865 -0.14290349 -0.15899666 -0.15509245 -0.21517321 -0.047472488
-0.09325578 -0.15921275 -0.0965769 -0.07948748 -0.15995432 -0.12871212 0.0070609255 -0.11386875
-0.055443164 -0.106335916 -0.13973737 -0.15997665 -0.111672215 -0.1255522 -0.15757224 -0.15567617
0.14968558 -0.09921852 0.18015976 -0.10981372 -0.13121022 -0.0863276 -0.1188489 -0.07829607
-0.17698504 -0.1786356 -0.0461748 -0.15183432 -0.13314737 -0.08158999 -0.1869936 -0.12317727
-0.19168466 -0.19223808 -0.14735477 -0.1809513 0.0029138078 -0.122444764 -0.0014683335 -0.11058557
-0.14196756 -0.15805584 -0.16573048 -0.080233224 -0.15948664 -0.057536643 -0.11750984 -0.11960852
-0.19199131 -0.17353691 -0.13539672 -0.10809588 -0.12119194 -0.20598656 -0.17935051 -0.15284498
-0.16617762 -0.21184711 -0.18606101 -0.13676597 -0.12754783 -0.074457064 -0.113831565 -0.104742244
-0.051237375 -0.0053474316 -0.07778674 -0.16284437 -0.16673222 -0.04877747 -0.10730834 -0.12634416
-0.025406895 -0.1062026 -0.01339542 -0.17142983 -0.12649147 -0.030302135 -0.15525739 -0.121951915
0.06340923 0.08782685 -0.09156789 -0.035065748 0.010708358 -0.12689501 -0.23247765 -0.1650548
0.82116354 0.69527316 0.8260691 0.85686725 1.0193526 0.8749299 0.52607536 0.92710775
0.76122415 0.66480875 0.7763813 0.5046043 0.62248784 0.7246352 0.5682485 0.43671474
0.67298794 0.78445816 0.25671408 0.5788918 0.48497096 0.6110434 0.71369445 0.8711991
1.0021919 0.77378535 0.73756444 0.8178332 0.18243927 0.9935082 0.27268746 0.95092785
0.78566086 0.53482014 0.97581905 1.0072328 0.9135191 0.9162836 0.46184677 0.92672724
0.6495819 0.49989823 0.6981958 0.7145993 0.77006775 0.8787565 0.9071611 0.8589571
0.31641254 0.7949789 0.37296188 0.674457 0.9458597 0.9273334 0.87813413 1.0272069
00000000: 5b6f 43be f9ca 0dbe 5a42 1dbe c4e8 34be
00000010: 0ff1 b3bd 9303 1abe 3f82 81bd c19a 07be
00000020: 3ee2 0ebe cc5f 1abe a90a 3ebe 4ba5 d1bc
00000030: 3b0a 9fbd 7c9b 11be 4d9f adbd 6529 8dbd
00000040: 1b55 1bbe e4dc e9bd 8867 a83c 956b dbbd
00000050: 7405 2fbd 127f b9bd 5ed8 e9bd 29fc 17be
00000060: ec0f d2bd d5cf dfbd db11 13be 0f1f 15be
00000070: 7702 263e 1001 b9bd b23f 713e c348 c6bd
00000080: fd42 ebbd 23ce 9bbd bcd9 d7bd 9f1a 78bd
00000090: f3e7 24be 8d09 2cbe 15f4 1bbd e57c 03be
000000a0: 9eeb fabd a9de 8fbd 4aff 33be dac3 e5bd
000000b0: aa40 38be fa46 15be 43d2 02be 2642 2abe
000000c0: 0354 b43c 3e5d f2bd 2364 763c a6d4 cdbd
000000d0: 2572 09be 655e 11be 1de5 1fbe 7627 93bd
000000e0: 0eef 16be c6f2 0cbd edef debd 8498 cbbd
000000f0: 37d7 3abe 19d7 2bbe 97b7 00be 2737 c7bd
00000100: 54eb dcbd d484 3abe a4a4 21be adc1 0ebe
00000110: 40f6 1bbe 4514 4cbe 86b0 26be ebf5 01be
00000120: a0c7 e4bd 4b3b 75bd d3af d1bd b4a4 bdbd
00000130: ccd8 22bd b297 8c3c 1842 44bd bfaa 19be
00000140: 0148 1cbe 29f8 b7bc 4d1a bcbd cc2c f5bd
00000150: 6f4e 47bc 5df2 b4bd bd58 9cba e992 23be
00000160: 3417 e6bd 5d3a 6ebc d637 17be 3139 e9bd
00000170: b2a3 a63d 35ef f33d 9087 a4bd cfc4 64bc
00000180: 02a4 e73c 14c5 eebd 8567 57be 5ba5 16be
00000190: 0348 5abe 04c1 17be 5f77 26be 2308 4dbe
000001a0: 4dcf c7bd 6c1f 27be 7ebd 9ebd 4b55 12be
000001b0: 05d0 22be 8ed0 1ebe 5e56 5cbe 8372 42bd
000001c0: e3fc bebd ab08 23be 1cca c5bd 55ca a2bd
000001d0: 11cb 23be 1ccd 03be 565f e73b 0534 e9bd
000001e0: 5f18 63bd a5c6 d9bd 5017 0fbe ebd0 23be
000001f0: 67b4 e4bd c290 00be 9e5a 21be 9369 1fbe
00000200: 2d47 193e 1433 cbbd cd7b 383e 04e6 e0bd
00000210: f95b 06be 86cc b0bd 0d67 f3bd b159 a0bd
00000220: 913b 35be 40ec 36be c921 3dbd 757a 1bbe
00000230: c957 08be a718 a7bd 407b 3fbe 5d44 fcbd
00000240: fc48 44be 0fda 44be 2be4 16be 4c4b 39be
00000250: 95f5 3e3b 52c4 fabd 1975 c0ba b07a e2bd
00000260: f25f 11be 64d9 21be 40b5 29be 5151 a4bd
00000270: 7750 23be 8bab 6bbd 00a9 f0bd 50f5 f4bd
00000280: 5f99 44be a9b3 31be 70a5 0abe 5f61 ddbd
00000290: 7b33 f8bd 24ee 52be a9a7 37be 6583 1cbe
000002a0: 772a 2abe 73ee 58be c786 3ebe 610c 0cbe
000002b0: e69b 02be f27c 98bd 8620 e9bd 1a83 d6bd
000002c0: 48de 51bd 8239 afbb a84e 9fbd adc0 26be
000002d0: dabb 2abe e2ca 47bd 7ac4 dbbd 5d60 01be
000002e0: 1f22 d0bc c080 d9bd 7778 5bbc 4d8b 2fbe
000002f0: fb86 01be 2f3c f8bc cbfb 1ebe edc1 f9bd
00000300: b3dc 813d 90de b33d f287 bbbd 1aa1 0fbd
00000310: 1c72 2f3c c4f0 01be 9f0e 6ebe 2004 29be
00000320: c637 523f 6cfd 313f 4479 533f a75b 5b3f
00000330: 257a 823f 68fb 5f3f e0ac 063f ef56 6d3f
00000340: 96df 423f e830 2a3f edc0 463f bf2d 013f
00000350: 5d5b 1f3f b181 393f bc78 113f 1399 df3e
00000360: f048 2c3f 40d2 483f 0770 833e 4132 143f
00000370: 1d4e f83e 576d 1c3f aeb4 363f e706 5f3f
00000380: d347 803f cc16 463f 06d1 3c3f 845d 513f
00000390: 5cd1 3a3e 8e56 7e3f b19d 8b3e 0270 733f
000003a0: 1221 493f f9e9 083f 47cf 793f 01ed 803f
000003b0: 63dc 693f 9091 6a3f 2e77 ec3e ff3d 6d3f
000003c0: 004b 263f a9f2 ff3e f6bc 323f fbef 363f
000003d0: 2923 453f 30f6 603f b63b 683f 9de4 5b3f
000003e0: d300 a23e bd83 4b3f dcf4 be3e 37a9 2c3f
000003f0: dc23 723f b965 6d3f 66cd 603f 847b 833f
